model1
_________________________________________________________________
Layer (type)                 Output Shape              Param #   
=================================================================
dense_39 (Dense)             (None, 256)               200960    
_________________________________________________________________
dense_40 (Dense)             (None, 128)               32896     
_________________________________________________________________
dense_41 (Dense)             (None, 64)                8256      
_________________________________________________________________
dense_42 (Dense)             (None, 32)                2080      
_________________________________________________________________
dense_43 (Dense)             (None, 10)                330       
=================================================================
Total params: 244,522
Trainable params: 244,522
Non-trainable params: 0
_________________________________________________________________
Epoch 1/15
60000/60000 [==============================] - 3s 46us/step - loss: 0.3517 - acc: 0.8925
Epoch 2/15
60000/60000 [==============================] - 2s 37us/step - loss: 0.1221 - acc: 0.9631
…
3        1     0     5  993    0    3    0     3    4    1
4        0     0     3    0  963    0    3     4    1    8
5        4     0     0   19    1  855    3     1    6    3
6        5     3     3    1    4    2  939     0    1    0
7        0     3     6    0    0    0    0  1017    1    1
8        1     1     4    3    2    0    2     6  953    2
9        1     2     0    7    6    6    1    12    1  973
model2
_________________________________________________________________
Layer (type)                 Output Shape              Param #   
=================================================================
conv2d_42 (Conv2D)           (None, 28, 28, 8)         80        
_________________________________________________________________
dropout_52 (Dropout)         (None, 28, 28, 8)         0         
_________________________________________________________________
max_pooling2d_39 (MaxPooling (None, 14, 14, 8)         0         
_________________________________________________________________
conv2d_43 (Conv2D)           (None, 14, 14, 16)        1168      
_________________________________________________________________
dropout_53 (Dropout)         (None, 14, 14, 16)        0         
_________________________________________________________________
max_pooling2d_40 (MaxPooling (None, 7, 7, 16)          0         
_________________________________________________________________
flatten_11 (Flatten)         (None, 784)               0         
_________________________________________________________________
dense_44 (Dense)             (None, 128)               100480    
_________________________________________________________________
dropout_54 (Dropout)         (None, 128)               0         
_________________________________________________________________
dense_45 (Dense)             (None, 10)                1290      
=================================================================
Total params: 103,018
Trainable params: 103,018
Non-trainable params: 0
_________________________________________________________________
Epoch 1/15
60000/60000 [==============================] - 26s 434us/step - loss: 0.4131 - acc: 0.8758
Epoch 2/15
60000/60000 [==============================] - 26s 432us/step - loss: 0.1214 - acc: 0.9618
…
